LSTM-pytorch/best_model.pt (torch, 205666 bytes, 9 tensors)

lstm.weight_ih_l0 f4 [256, 1]
00000000: 51ed be3b 2cdd 883d 1ca8 083e 55e9 753d
00000010: 0fcd 353d 4383 f3bd e945 a33e b02b 253e
00000020: 3bd0 573e 4623 143e bcd9 6838 fa38 dd3d
00000030: fe9e 3fbd abab 8a3d 62c9 043e 2f6b b1bc
00000040: 3dcc 0e3e c017 21be f88d 223e 6b55 243e
00000050: 2845 0dbd 40ae 533c 05c3 283e 87b4 143c
00000060: 4327 8fbd b92b 96bd b284 ed3d b7f1 413e
00000070: a4b5 533e 764c 9c3d c65f 773e 8a82 043d
00000080: 8b0a 8a3d 4567 14bd 18fb bc3d e755 83bc
00000090: 5360 2a3e 9c02 663d 641b ff3d b2ed 2f3e
000000a0: 37c0 08be 8fec 9e3d 38b0 18be 9a70 33be
000000b0: 4b21 3c3e 1374 ec3c 4312 153d cebd c43d
000000c0: 4334 213d 293e 77bd 12fa da3d 6777 aebd
000000d0: b219 9dbd ca7e dd3c 784f 363e b150 223e
000000e0: 73a9 b53d 26ec 423d e559 153e 3aab 5a3d
000000f0: 412d 1cbe 14f9 65bd eb30 a63d e371 713d
00000100: 2c26 0bbe 63ba 45be 66a2 0dbd b9ed b0bd
00000110: 5105 283e c179 1f3d 4115 ddbc 8c45 0c3e
00000120: c619 36bd 6846 6e3d f4aa 5b3d 9e74 183e
00000130: e81b 49bd 6f62 59bc 35c4 573e 9220 2a3e
00000140: 178b f53d 1113 61be 0732 2abc 19fc 113c
00000150: 5420 3fbe 73e4 ffbd aeab d33c b039 c4bd
00000160: c705 7c3c d5ac 4bbe 8101 2d3d 756a 043d
00000170: 9bb5 113d 3364 133e 3283 b63c ac26 e33d
00000180: 8fc5 c23d 80d7 f03c 1b1f 013e 3706 493d
00000190: a618 763d 6dfd 00bb 6abc 223e 3724 73bc
000001a0: e966 6dbe 753c 0c3e f8ff 593c 5705 2abe
000001b0: 794d 123d 0081 773b 70bd 4a3e 6a5c 1d3e
000001c0: 4af4 c0bd 2648 f6bc ab0f 2d3e dead 4abd
000001d0: e3da 12be 3db3 163e 7849 2d3e 1943 193c
000001e0: 6b50 bbbd 60ec 3f3e 5146 183e 1c9a a23d
000001f0: 85db 4f3c 033a 66be 96db f8bb ad13 3e3b
00000200: d37a 67be 1f0a 623d e8df 503e 6098 d8bd
00000210: 8107 47be 5129 ea3c a5f5 8fbe 7b47 b2bd
00000220: 9f26 493e 3d6b 92be 4c8f 433e 84a1 86bd
00000230: 1d9b 203e e03e 09be 9665 36be 0292 49be
00000240: acde 43be 3485 503e 5bbd 733e 1b63 30be
00000250: 9125 5bbe db9a 5fbe 489c 023e 0781 6a3e
00000260: e873 87bd a72e 543e dbdf 25bd 42ec 38be
00000270: 445b 22be 9368 5d3e 5054 883e 12bb 443e
00000280: 49c7 653e 5c95 25bc b16d ea3c 8e34 2cbe
00000290: 6e79 adbd 2864 b5bd 43f1 fc3d dc0b 203e
000002a0: 7581 aabd 07de 1ebe 7462 4cbd 0128 793e
000002b0: 447f a23e ea0f 773e dcf5 24be 233d ba3d
000002c0: b087 cebd 074a 8e3c 2af4 17be 9e38 a4bb
000002d0: 549e 05bd 8e66 0ebe 24c6 203e 390a 0b3e
000002e0: a12c cf3d e465 3abe 6372 93bb 956b 57bd
000002f0: a6ab dfbd 3e82 62be 6117 17bd 5087 a93d
00000300: 7acb b9bc 83d7 883d bb5f 693e 202f 3fbd
00000310: 44a0 1f3d b7da cd3d 53ba 2d3e ec6d 813e
00000320: c739 a63e 9116 0a3e 2afe 103e d2f7 f23d
00000330: df8c 30bd 2593 013d 8bd9 173e 7546 533d
00000340: c3c3 243e e84b b1bd b8ec 0b3e 025d 593e
00000350: 2a60 71be 5cc1 21bd 820d 293e 0a36 af3a
00000360: d8a8 333e e0ab 06be 4897 84bd 9cec fe3d
00000370: 6c0f 3e3e 54bb 763e 3c67 8a3e 5a10 463e
00000380: 0617 393d b088 25bd d342 1c3e 15f2 fb3d
00000390: 53d0 bb3d f5e6 9f3d 4c50 973e a487 813e
000003a0: b52f 15be 0139 483e 9615 883d 699a 1fbd
000003b0: 5cc5 7f3e d0b9 483e af14 fe3d 354f 463e
000003c0: 878f 3dbc ad3d e73d 1fb9 993e 02a6 183d
000003d0: 6783 3abc 35a3 833c d20a 813e bb39 e03d
000003e0: a95e abbd 9b00 723d 2efb 013e 8830 3ebd
000003f0: 4851 d4bd d6f7 93be 36a5 113e 148f 2fbd
0.00582663 0.0668281 0.13345379 0.060036976 0.044385012 -0.118902706 0.31889275 0.16129947
0.21075527 0.14466581 5.551589e-05 0.10801883 -0.046782486 0.06771024 0.12967446 -0.021657554
0.13945098 -0.15731716 0.1587447 0.1604821 -0.03448978 0.012919962 0.16480644 0.009076244
-0.069899105 -0.07332558 0.11597575 0.18939863 0.20674759 0.07631771 0.24157628 0.032351054
0.06740292 -0.036231298 0.0922758 -0.016032172 0.16638307 0.056154832 0.12456396 0.17180517
-0.13354574 0.07759964 -0.14910972 -0.17523423 0.18372075 0.028863942 0.03639437 0.09606515
0.03935648 -0.060362015 0.106922284 -0.08518868 -0.076709166 0.027037997 0.17803752 0.15851094
0.088702105 0.04758849 0.14585073 0.05338595 -0.15251638 -0.056145743 0.08114799 0.0589465
-0.1358878 -0.19309382 -0.034578703 -0.08639092 0.16408278 0.038934473 -0.026987674 0.13698405
-0.044458173 0.058172613 0.05362983 0.14888236 -0.04909888 -0.013268097 0.21070941 0.16613987
0.1198942 -0.2197993 -0.010387904 0.008910202 -0.18664676 -0.12494745 0.0258387 -0.095813155
0.015382237 -0.19890149 0.042237762 0.032328088 0.035573583 0.14393692 0.022279356 0.110913604
0.095103376 0.029399633 0.12609522 0.049078193 0.0600821 -0.0019682304 0.15892187 -0.014840177
-0.23183788 0.13694938 0.013305657 -0.166036 0.035718415 0.00377661 0.19798827 0.15367284
-0.094215944 -0.0300637 0.16900508 -0.04948222 -0.14341311 0.14716811 0.16922557 0.009354376
-0.09146198 0.18742514 0.14870574 0.0793955 0.012686615 -0.22483067 -0.007594536 0.0029003427
-0.22605447 0.055185433 0.20397913 -0.10575938 -0.19436456 0.028584154 -0.281171 -0.0870504
0.19643639 -0.2859744 0.19097632 -0.065737754 0.15684171 -0.13402891 -0.1781219 -0.19684604
-0.19127911 0.20363313 0.23802702 -0.17225306 -0.21401049 -0.21836416 0.12754929 0.22900783
-0.06613904 0.20720921 -0.04049669 -0.18058875 -0.15855128 0.21621923 0.26626825 0.19211987
0.22439303 -0.010106411 0.028616758 -0.16816923 -0.084704265 -0.08856994 0.123507045 0.15629524
-0.08325473 -0.15514384 -0.04989858 0.24331667 0.3173772 0.24127164 -0.16109413 0.09093692
-0.10084474 0.017369283 -0.14839235 -0.005011632 -0.032621697 -0.13906309 0.15700585 0.13578118
0.10115934 -0.1820293 -0.00449972 -0.052592833 -0.10921411 -0.22119996 -0.03688753 0.08277762
-0.022680033 0.066817306 0.22790425 -0.0466758 0.0389712 0.10051482 0.16965608 0.25279176
0.32465956 0.13485171 0.14159456 0.11863674 -0.043103095 0.03163447 0.1482908 0.051580865
0.16090302 -0.08657056 0.1366452 0.21226886 -0.2357184 -0.039491042 0.16509059 0.0013367545
0.17544878 -0.13151503 -0.06474167 0.124474734 0.1856057 0.24094898 0.27031887 0.19342175
0.045187972 -0.04041356 0.15259866 0.12302033 0.09170594 0.078077234 0.2955345 0.25298798
-0.1456898 0.19552995 0.06644742 -0.038965616 0.2497763 0.19602132 0.12406289 0.19366153
-0.011569864 0.112910606 0.3002405 0.037267692 -0.011383868 0.016069034 0.25203568 0.10948511
-0.08367664 0.05908261 0.12693474 -0.046433 -0.10367066 -0.2890002 0.14223179 -0.04286106

lstm.weight_hh_l0 f4 [256, 64]
00000000: 9ebf 923e 7f70 2ebe 0baa 1f3e 0051 e1bd
00000010: d179 a8bd 335b f83d 3320 413e af5b a3bd
00000020: c03a 5e3d 525b 46be 35bb aa3d 3980 12be
00000030: 7c60 3cbe b7fd 28be dec3 5ebe 235b 47be
00000040: 324a 36be a018 97be f429 af3d 0a8d 3abe
00000050: 37e4 013e 0729 b63e 69c5 773e 3877 39bc
00000060: c396 c3bd fded c1be d87d 8abd 1311 40bd
00000070: b9d8 45be 0ca3 bf3d 38de 7ebd de9f 1e3e
00000080: 5dff 1e3c 92b6 eebd e048 01be e6fb 84be
00000090: 9b08 75be e3ec c63d 3311 433e 8eed 003e
000000a0: 4059 283e ffd1 9bbd 9ff5 433e aee0 c8be
000000b0: c505 033e fb20 2f3d fac3 5dbe dabd 313e
000000c0: edbd 843e 5f76 2b3e ecbd e3bc f332 313e
000000d0: 9cac 563d 7e56 7cbd 87e8 d23d 1c12 9b3d
000000e0: b1ce 1ebe d532 90bd ed2b 47be 97b1 4abe
000000f0: 70d0 fe3d ddd1 423e 8ab8 79be f354 14be
00000100: a853 d53e 0e60 98be ce7e a1bc 0883 0bbd
00000110: 0757 2c3d 0741 aa3d 818e 333d c8c6 87bd
00000120: cb7d e1bd 7275 5d3d cb0b 843d 3b81 70bd
00000130: f08e 62be 85ce abbd bb8a 533c 2305 51bd
00000140: d187 0d3b 937e ebbe 4c42 39bc a94c 4dbd
00000150: 7632 783e 0303 f83e bba1 af3d f096 b0be
00000160: 2b79 0dbe aa39 9dbe 614c 06bd 673a efbc
00000170: f4f5 ecbd 8a4a 3fbd 1193 79bd 86cd 81bd
00000180: 935f 1bbe 93ec 1ebb de54 423a 830d 133d
00000190: 86cc 8b3d b57c 00be a798 fa3d 0cde 98bd
000001a0: 944f bbbd 50f2 de3a fb13 233e 52cf 38bf
000001b0: ccb8 1abe 4072 5dbe 8d46 613c 07ab 963c
000001c0: 93cd a5bd 911b 3d3c 99a6 233e 3a04 dc3d
000001d0: dd12 713d 2725 373c 267c 2b3c 832c 2d3d
000001e0: bde8 8ebc 6a19 7dbc 6e29 b73d 01f8 9fbd
000001f0: e66d 093e 3083 f33e fd91 0b3d dce5 de3d
00000200: b6f6 633c e0ed bdbd ec00 76bd ae78 2ebd
00000210: 8b09 f0bd 978e 003e ca07 eabc b245 8e3d
00000220: fdac b1bd 426d 11bd cc7c 5fbc d52e a03d
00000230: 4fe1 40bd 8c5d f2bd 9f34 88bc c8f0 0cbe
00000240: 50c1 ea3d 19ee 08be 1a47 0ebe 3546 d4bd
00000250: bcf9 b2bb d88a d33c 74e0 c1bc 4df3 a1bc
00000260: 91ce 383d 8cb8 66bd 72b9 f4bd f0c4 a2bd
00000270: a7a7 50bd c234 0b3d 5315 e0bd c40d 04be
00000280: 506e 81bd d682 45bd 2f5f 2dbd 19b2 793d
00000290: 9d9c 0cbc 4820 013e 1c3e 883d 86db c9bd
000002a0: f5ae dabc 032a d3bd abfe 0d3e 1a8c abbd
000002b0: 6671 fa3d 2404 073e ef9e 993d e639 3c3d
000002c0: e0ff 493d f5f5 7dbd 4e5f 99bd 0544 c4bd
000002d0: b6af 9ebd 13c7 d7bd 7acf 51bd 3a6c c1bd
000002e0: db20 c83d 5f8e 043c 91b1 88bd 0e46 893d
000002f0: de9f 95bd a4ae 333e fb00 90bc 0b1d 08bb
00000300: dc24 0a3d 54e8 d1bd b9ba 693d 4442 c5bc
00000310: e629 24bd 122f ba3d 26bb 153d b11e eb3d
00000320: 5218 adbd 8952 9a3d c0b8 35bc 49ac ee3d
00000330: 7ed9 6b3d 3898 00bd 9032 b83d 3d5f 1b3e
00000340: 08d8 4f3b 58c3 a5bc bafa a4bd b1fd 803d
00000350: 46b6 a1bd 8bc6 e13d 9194 e0bd 0760 c4bd
00000360: 0a31 4f3d fd2c bfbd 1184 ac3d 3679 0e3d
00000370: a804 053e 98ab 1bbd 1593 5f3b 9379 3ebe
00000380: 8a23 683d daaf 1f3e 3840 163e e8c2 5fbd
00000390: 96c2 c23d e216 12be 6d18 f6bd 030f b33d
000003a0: 729a efbd a8f1 583d 29f0 fcbd f2d9 f1bd
000003b0: e8bb a33d 4e97 9abd 70ac 343c 92f8 3abd
000003c0: a378 ccbc 2939 a1bd 8dae 263e ab99 5cbd
000003d0: 48ab 51bc 1828 e83d e9aa 60bd aa85 a43d
000003e0: ae5f 66bd 1f1a 3d3d 313a b73d f3fc 16bd
000003f0: 8a35 953d 3670 1c3d da03 5f3d 07d5 283e
0.28661817 -0.17035101 0.1559221 -0.11001778 -0.0822636 0.1212677 0.1885994 -0.07976472
0.054255247 -0.19370773 0.08336488 -0.14306726 -0.18396181 -0.16503035 -0.21754405 -0.1946836
-0.17801741 -0.29510975 0.08552924 -0.18217865 0.12684713 0.35578176 0.241964 -0.011319928
-0.0955024 -0.37876883 -0.06762284 -0.046891283 -0.19320954 0.093572706 -0.062223643 0.15490672
0.009704438 -0.11655916 -0.12625456 -0.25973433 -0.23929064 0.09713151 0.1904953 0.1259062
0.16440296 -0.07608413 0.19136666 -0.39233917 0.1279517 0.042756062 -0.2165679 0.17357579
0.25926152 0.16744374 -0.027800523 0.17304592 0.052410707 -0.061605923 0.10298257 0.075718135
-0.15508534 -0.070409454 -0.1945035 -0.19794308 0.124421 0.19025369 -0.24386802 -0.1448553
0.41665387 -0.29760784 -0.019713785 -0.034060508 0.042075183 0.08313184 0.043837074 -0.066297114
-0.11010321 0.054067083 0.06447562 -0.058716994 -0.22124839 -0.08389 0.012911494 -0.05103029
0.0021595845 -0.45995006 -0.01130731 -0.050121937 0.24238 0.48439798 0.085757695 -0.34490156
-0.13815753 -0.30708057 -0.032787684 -0.029202653 -0.11570349 -0.046701945 -0.06093127 -0.063380286
-0.15173177 -0.0024249896 0.0007413159 0.035901558 0.06826119 -0.12547572 0.122361474 -0.07464227
-0.09146038 0.0017009471 0.1592559 -0.72191346 -0.15109557 -0.21625614 0.013749731 0.018392099
-0.08095851 0.011542217 0.1598152 0.10742994 0.05885588 0.011178291 0.010466611 0.042278778
-0.017444963 -0.015447954 0.08943449 -0.07810975 0.13420829 0.47561026 0.034074772 0.10883686
0.013913801 -0.09273887 -0.060059473 -0.042595558 -0.1172057 0.12554394 -0.028568167 0.06946887
-0.08675573 -0.035504587 -0.013640594 0.078214325 -0.04708987 -0.11834249 -0.016626654 -0.13763726
0.11462653 -0.13372077 -0.1389431 -0.103649534 -0.0054618996 0.025823042 -0.023666598 -0.019769335
0.045118872 -0.05632834 -0.119494334 -0.07947719 -0.050941136 0.03398586 -0.10941567 -0.12895876
-0.063198686 -0.048220478 -0.042327102 0.060960863 -0.008582261 0.1260997 0.066524714 -0.09856324
-0.026694754 -0.103107475 0.1386668 -0.083763316 0.1222866 0.13185173 0.07501017 0.045953654
0.049316287 -0.06200214 -0.07488881 -0.09583286 -0.07748358 -0.10536017 -0.051223256 -0.09444471
0.09771892 0.008090585 -0.06674493 0.06702815 -0.07305883 0.17547089 -0.017578593 -0.0020769264
0.033726558 -0.10249391 0.05706284 -0.02407945 -0.04007902 0.09091009 0.03655543 0.11480463
-0.08451904 0.075352736 -0.011091411 0.116539545 0.057580464 -0.031395167 0.08994019 0.1517305
0.0031714458 -0.020234749 -0.08055635 0.06298388 -0.07896094 0.11024197 -0.10965837 -0.09588628
0.050583877 -0.09334753 0.08423627 0.034783565 0.12990057 -0.03800544 0.0034114767 -0.18601064
0.056674518 0.15594426 0.14672935 -0.054629236 0.095097706 -0.14266542 -0.120163776 0.08743098
-0.1169938 0.052964836 -0.123504944 -0.11809148 0.07994825 -0.0754839 0.01102744 -0.04564721
-0.024959868 -0.078722306 0.16277523 -0.053857487 -0.012797184 0.11335772 -0.054850493 0.08033307
-0.05624359 0.04616749 0.08946646 -0.036862325 0.072856024 0.03819295 0.054447033 0.16487513

lstm.bias_ih_l0 f4 [256]
00000000: 0216 633e 6bf4 c63d 2e51 90bc 90da 84bd
00000010: 94a2 7e3d 5e0c d23c 0525 8e3e 925b 9dbd
00000020: 28a7 b8ba e520 703e bf08 cb3d 82a2 923c
00000030: b9b2 f13c 2836 6b3d e247 c83d cc3f 9bbd
00000040: b47c 853c 1a91 9e3b 7bb7 763e 8d61 c33d
00000050: 1db2 373d e1c6 2d3e d36e eebd b4d0 413e
00000060: a89f 35bd 8156 2d3e 4eec c33d 86c3 7b3d
00000070: c74b b93d 37a6 81bc 5823 b23e c91f de3d
00000080: d606 e23c 7e83 963d 8295 483c 4f81 9ebd
00000090: a2ba 8d3c 8ca6 36bc 2719 3e3d b006 f83c
000000a0: f4bb e53c 581f 27bc ec8a 05be cd0e af3d
000000b0: 9365 123d e81f 5e3d fc72 bcbb 5392 8f3d
000000c0: 5bd5 82bd a81b acbd 7c28 083e ac55 d83d
000000d0: b84c e43d d33c 64bb 666f 6ebd 6e6d e3bd
000000e0: dc8c febd 1fde 0d3c 1dac 203c 4d1e 0a3d
000000f0: f6d0 c1bd 9d99 593e 66af 933b ede5 cc3d
00000100: 80c6 cabc c98f ed3d a302 f2bd 1b4a d9bd
00000110: a933 9d3d 02fc 1dbd eff7 863c adcc e53c
00000120: 4801 633d 31a7 e5bd 48b6 a23d 0267 8e3d
00000130: 16a1 56bc dc0a d4bd eb36 be3d a3bb b43d
00000140: 3f9e c83d 488d babd 1402 5e3d a4dd 493d
00000150: 5dbf e8bd 41b7 773d 2019 493d 9b4f 553d
00000160: 629e d03d 029f b5bd 8c84 bdbd f867 743d
00000170: 1c92 f6bd ea33 883c 6be7 8dbd 400f 14be
00000180: 92c1 d6bd 3e90 e83c c5db c93d a685 863d
00000190: 9a6f 04be c338 94bd a5cf f3bd 0d05 d5bc
000001a0: 1f32 06be ea62 dd3d 0f27 3a3c 4244 053d
000001b0: 994b f03c ddf3 8d3d d460 c3bd 2415 593d
000001c0: 0c29 fabb f0e0 d33d 96e9 49bd 3a05 b73d
000001d0: ab23 a1bc 7ebe 24bd 7fd0 fc3c 91d5 cebd
000001e0: 9aed 5d3d 68bd 3dbd bfc7 09be 0191 343d
000001f0: ad38 c5bd 74f7 e3bc 09d1 b73d 72bb 023d
00000200: e60d 373d 0638 0abd 56bb cdbd a6b4 8cbd
00000210: 0936 033e 1bba 963c 8636 0dbd 80a5 51bd
00000220: 440c 80bd 3dbb 5e3d 5f89 843d bd1b a0bd
00000230: 9fc2 03bc 3e6f 9ebd c5e7 f83d 68d0 7bbd
00000240: 94d6 793a 1f5f b5bd a7dc d23d a502 813d
00000250: e8a0 663d e597 003e 7df8 37bd 9266 d9bd
00000260: 5ffa 7bbd 9a64 89bd 1ab1 63bd dc85 913d
00000270: 579c 0abd 9054 403d 3cfe c6bd 3e82 bb3c
00000280: f00d 80bd 8f05 e0bd 0364 c0bd cd74 adbc
00000290: 21ac a8bd 6458 a23c 1aba 96bd 0d38 9e3d
000002a0: b8ff 563c caec 5abd d47b a23d ac0a b7bd
000002b0: 20d1 d63c fe16 bbbd ff21 4abd a40f 7abd
000002c0: d678 2a3d c238 c43d 5afd f0bc fcf8 ff3c
000002d0: fd21 f33b 97fb 863d bbad 06bc 172f b83d
000002e0: 0649 02bc 9931 9bbc 5f71 963d f254 d9bc
000002f0: 438a 903d 86c2 683c 998b 80bb 731e 45bb
00000300: 5815 a23d 2b3b 153e 5349 a73d 469c 58bd
00000310: 1c13 933d 86dd 9d3d 48ff 7a3e 2285 783d
00000320: 1a44 413e 6477 143d 7e1f bf3d 406d 33bd
00000330: 28b6 94bd 4a31 dc3d dd0e ea3b e878 143c
00000340: ff85 c83c 55e3 623e 35b9 653e 99e8 0c3e
00000350: 4fcc c73b 9299 913d 3096 d03d e6a2 f53d
00000360: ae2f bf3b 042f 7b3d 6ddb efbd a8b7 e43d
00000370: b508 e8bd d368 743c 6f24 a03e ed19 483e
00000380: 3425 2f3e 9ed6 c7bd 4752 9e3d 4364 633d
00000390: be27 8cbc f15e b8bc 82eb 693d ac9e 25bd
000003a0: c0b6 06be 94df 31bc 9a83 9b3d 5d48 e53d
000003b0: f206 123e 7537 0d3e a9ef 963c 3601 af3b
000003c0: 3f30 08bd 75fd adbd 5fe2 fc3d 3f06 603d
000003d0: 3892 dcba 39a4 b13d 3e06 0ebc dd7c a83d
000003e0: 9181 b93c e4d3 8ebc 577b c93d 6de8 d13d
000003f0: 10dc 863c 5581 2f3d efd8 2abd 0869 ea3d
0.22176364 0.09714588 -0.017616834 -0.06487 0.062166765 0.025640663 0.2776262 -0.07683481
-0.0014087902 0.23450048 0.099137776 0.017899755 0.029504167 0.057424694 0.097793356 -0.07580528
0.016294815 0.004839075 0.2409343 0.09540091 0.044847596 0.16970398 -0.11642232 0.1892727
-0.044341713 0.1692753 0.09566556 0.061465763 0.090476565 -0.015826328 0.3479259 0.10845906
0.02759115 0.07349299 0.012242677 -0.077395074 0.017300908 -0.011148106 0.046410706 0.030276626
0.028043725 -0.010200344 -0.13041276 0.08547745 0.0357414 0.054229647 -0.005751012 0.07010331
-0.063883506 -0.084037125 0.13296694 0.105632156 0.111474454 -0.0034826293 -0.058211707 -0.111048564
-0.124292105 0.008658915 0.00980666 0.033720303 -0.09463684 0.21250005 0.004506993 0.10004792
-0.024752855 0.115996905 -0.11816909 -0.106098376 0.07675869 -0.03857041 0.016475646 0.028051699
0.055421144 -0.1121353 0.07944924 0.06953241 -0.013099929 -0.10353634 0.092878185 0.08824851
0.09795808 -0.091089785 0.0542012 0.04928364 -0.11364625 0.0604775 0.049096227 0.05207787
0.10186459 -0.08868219 -0.09253797 0.059669465 -0.12039587 0.016626317 -0.06928905 -0.14458942
-0.10486139 0.028389093 0.09856371 0.0656846 -0.12933198 -0.07237389 -0.119048394 -0.026003385
-0.13105057 0.10809882 0.011361851 0.0325358 0.029332923 0.06931279 -0.09539953 0.052998677
-0.0076342877 0.10345638 -0.04929503 0.08936544 -0.019670328 -0.04022073 0.030861137 -0.10099328
0.054181673 -0.04632321 -0.13455103 0.0440836 -0.09629951 -0.027827956 0.08975417 0.031917043
0.04469099 -0.033744834 -0.10045497 -0.068703935 0.12813582 0.018399289 -0.034475826 -0.051183224
-0.062523395 0.054377783 0.06471514 -0.07817791 -0.008042007 -0.077360615 0.121535815 -0.06147805
0.0009530571 -0.088560335 0.10295992 0.062993325 0.056305796 0.12557943 -0.04491471 -0.10615267
-0.06151807 -0.06708641 -0.05558882 0.0710561 -0.033840504 0.046955645 -0.0971646 0.022889253
-0.06252658 -0.1093856 -0.09394076 -0.021173859 -0.08235956 0.019817539 -0.07359715 0.077255346
0.013122492 -0.053448476 0.079337746 -0.089375824 0.026222765 -0.09135245 -0.049348827 -0.061050072
0.041619144 0.09581138 -0.029417682 0.031246655 0.007419823 0.06590956 -0.0082201315 0.08993357
-0.00795198 -0.018944548 0.073458426 -0.026529763 0.07057621 0.014206534 -0.0039228913 -0.0030077964
0.07914227 0.14573352 0.08168282 -0.05288341 0.07181379 0.07708268 0.24511445 0.06067384
0.18873635 0.036246672 0.093321785 -0.04380536 -0.07261306 0.10751589 0.007142885 0.009062029
0.024477957 0.22157033 0.22433932 0.13760604 0.0060973535 0.07109369 0.10184896 0.11993961
0.0058345413 0.061324134 -0.11711774 0.11167842 -0.11329786 0.01491757 0.31277797 0.1954114
0.17104036 -0.09757732 0.07730537 0.05551554 -0.017108794 -0.02250621 0.057109363 -0.040434524
-0.13155651 -0.010856528 0.075934604 0.11195443 0.14260462 0.13790686 0.018424826 0.0053407205
-0.033249136 -0.08495609 0.12347864 0.054693457 -0.0016828245 0.08673901 -0.00866848 0.08226941
0.02264479 -0.017435022 0.09837978 0.1024941 0.016462356 0.04284795 -0.04171079 0.11445814

lstm.bias_hh_l0 f4 [256]
00000000: d0da 673e 249b 273e e504 ffbc a076 e3bd
00000010: 0734 8a3d b92e 59bd a1f7 9e3e 5513 013c
00000020: 5f9e e43d 61d2 1d3e fb4d c43d d45c 92bc
00000030: 5a92 e2bd 99e9 99bd 1cd8 943d 82cb 263d
00000040: 2385 8ebd 6b1c 003e d9d6 6a3e ce10 ab3c
00000050: e74c e6bb d1cd 733d 570f db3d 7f77 a63e
00000060: 9978 97bd 486e 243d d303 3b3c 2f6c b73d
00000070: 5f49 993d b167 fc3d e3b8 3b3e d9f5 4e3e
00000080: cb9b cc3d b451 88bd e933 bf3d 01fe e7bd
00000090: 566c bdbd 9fb0 f8bd 57ec 183c b0f4 d6bc
000000a0: 9ae6 41bd a256 723d d078 a63d 69b6 573e
000000b0: b95a 2f3d b425 003e e2f6 95ba eb7f 47bc
000000c0: cb37 92bd 926a a83d 895b ab3d d088 93bc
000000d0: 4daa 12bd 50b5 b8bd 6e50 22bd 06ba b9bd
000000e0: 0e56 57bc f5a3 1fbd 1f97 6c3d e807 693c
000000f0: da5b bd3d 3ca2 dd3d 0213 c0bd 7146 16bd
00000100: dc01 99bd b61c 79bc 53a5 b4bd 69d6 853d
00000110: 091a 953d 4e49 c1bd edc3 be3c 55fa f13c
00000120: ca81 d63d 0dac 643d a768 fe3b 85e3 3dbd
00000130: 8c07 3e3b c0f6 53bd 8f82 e63d cb0b aabd
00000140: 42ae 2e3d 7c31 01bd bcbd a7bd b25c 1b3d
00000150: 35cb ba3d d423 f13d 138c f5bd a6ce 15be
00000160: 26fe eebd a0ec fc3c 5eb3 babd 9285 21bd
00000170: 6f79 69bb 453d b1bd 01ea ecbc dc8d 21be
00000180: 632d 483d 5c48 88bd cd55 fbbd d4bd 77bc
00000190: bc89 cabc 33ba 0f3d 8454 e03c 3d5e c83c
000001a0: d56a 253d fc27 bdbd 7c9d 9b3c aeb3 32bc
000001b0: b8be f3bd 02ee 133d d4e7 ad3d 4b73 a33d
000001c0: 4790 513d 7bdb e5bd 0369 b83d 0449 f3bd
000001d0: d583 9cbd 971a 2a3b 16e1 80bb 344c 6f3d
000001e0: c843 853d fb1e 90bd 1d6b 983d e25c b2bd
000001f0: 0da3 a6bd a3a9 c3bd 0300 b5bd 5521 8dbd
00000200: 3223 b83d 0215 4ebc 1a73 aa3d 0d05 64bd
00000210: d027 babd bdd8 a4bd 7244 c03d 8061 a33c
00000220: 31af ee3c fda2 cdbb b726 31bb 1422 c93c
00000230: 3c1d a7bd a40d 663d 8554 a1bd 699f 28bd
00000240: f20e 4fbd f626 a2bc 74d4 00be 1eb9 f5bc
00000250: 2632 e33d 64c5 39bd 2fb1 283d 50e7 c43c
00000260: 6bc9 a5bd 3dfd cd3c 1beb 1ebc 9b9c 6bbd
00000270: b77e 5abd 0070 52bc 14f5 b13d 0068 06bd
00000280: 088c 89bd 890d d8bd 3991 313c 3b0f d7bd
00000290: 1391 603c 8e54 d13c 0c73 8a3d b935 8dbd
000002a0: 593d 05bd 395d 8c3d 06da b03b 0099 7f3d
000002b0: 8898 a1bd da26 053d af9e f3bc e791 aa3d
000002c0: d09a 9d3c 2b51 59bd 72d6 d53c 3231 a33d
000002d0: 9f7a 1e3b 7d73 90bd a66e 923d 2ae0 2e3d
000002e0: 5474 c7bd 65ec 4cbc 778a c1bd 6ab4 48bd
000002f0: f7e7 ed3d d153 703d 82c0 b8bc 73c0 a33b
00000300: 3da5 0f3e cec2 5f3e c7f6 603d 9141 8bbd
00000310: 62f7 4b3d f24e f4bd 6957 9a3e fdea 09bc
00000320: b4d2 5e3e d64a fb3d 2948 f13d 19a7 b6bd
00000330: 9668 8b3d 6a6d e4bb 1393 cd3c 74ad f2bd
00000340: 5b3f 0d3d 5bf7 4e3e e778 373e 637b 903c
00000350: 3fe7 c43d a2af 323e 52ff 7d3d 3b92 0f3e
00000360: 79be 58bd 70a6 113e 633e 7f3d 3538 9bbc
00000370: b54a fb3b 8704 af3a 1d63 913e ee37 663c
00000380: 4610 9b3d bd20 493d 6dc1 c1bd 2063 5dbc
00000390: 9d28 513d 75db 503d d0a4 26bd cac4 c33d
000003a0: e62a 333d bb62 643d 6bdc 7d3c 80a3 463e
000003b0: 8a0a af3d 7f8c 3b3d e8f1 a5ba c16b d9bc
000003c0: ed30 7d3d 5df2 aa3d 2b55 96bd b636 6f3d
000003d0: b2df 65bc 2b6d 0a3d 4aaa 563d 09cc 83bd
000003e0: 7988 07be 92a6 adbc 779f c9bd 0bbe b23d
000003f0: bf10 43bd 8f4d 143e 5a7d 3dbc 7202 e8bd
0.22642064 0.16367775 -0.031130264 -0.1110661 0.06748205 -0.053023074 0.310483 0.007878144
0.111630194 0.15412284 0.09585186 -0.01786653 -0.110630706 -0.07515258 0.07267782 0.040721424
-0.069589876 0.1251084 0.2293352 0.020882037 -0.0070282104 0.059522454 0.10696285 0.32513043
-0.07396049 0.040144235 0.011414486 0.08956181 0.074846976 0.12324465 0.18332247 0.20210971
0.09990653 -0.06656209 0.09336073 -0.11327744 -0.09249179 -0.12143063 0.009333692 -0.026239723
-0.04733906 0.05916465 0.08128512 0.21065678 0.04281113 0.12514383 -0.0011441375 -0.012176494
-0.07139548 0.08223452 0.08367068 -0.018009573 -0.035806943 -0.090189576 -0.039627485 -0.09068684
-0.013143076 -0.03897472 0.057761308 0.014223076 0.09246035 0.108219594 -0.093786255 -0.036688272
-0.07471058 -0.015204599 -0.088205956 0.06535036 0.072803564 -0.0943781 0.023286784 0.029538313
0.10473974 0.055828143 0.0077639404 -0.046359558 0.0028996198 -0.05174899 0.11255371 -0.083030306
0.042646654 -0.031541333 -0.08190486 0.037930198 0.0912079 0.11774412 -0.11989608 -0.14629611
-0.11669569 0.03087455 -0.09116243 -0.039434023 -0.0035625359 -0.08654264 -0.028920176 -0.15776771
0.04887141 -0.066544265 -0.122722246 -0.015120942 -0.02472388 0.035089683 0.02738405 0.024458999
0.040385086 -0.09236142 0.018995993 -0.010907097 -0.11901611 0.036115654 0.08491483 0.07980975
0.051162984 -0.11223503 0.090044044 -0.11879161 -0.076423325 0.002595579 -0.0039330823 0.058422282
0.06507069 -0.07037159 0.07442305 -0.08709122 -0.08136568 -0.0955384 -0.08837893 -0.06891123
0.08991088 -0.012578251 0.08322735 -0.05566888 -0.09089625 -0.08049152 0.09388055 0.019943953
0.029136272 -0.0062755332 -0.0027031132 0.024552383 -0.08159873 0.056165352 -0.07877449 -0.04116765
-0.050551362 -0.019793969 -0.12581044 -0.029995497 0.110935494 -0.045354262 0.0411846 0.02403608
-0.08095058 0.025145167 -0.009699608 -0.057522397 -0.0533435 -0.012844086 0.08689323 -0.032814026
-0.06716162 -0.105494566 0.010837846 -0.10500952 0.013706463 0.025553014 0.06760225 -0.068950124
-0.03252921 0.06853718 0.005397084 0.06240177 -0.07890421 0.032507755 -0.029738752 0.0832861
0.01923886 -0.053055923 0.026103232 0.07968368 0.0024181975 -0.07053278 0.07150011 0.04269425
-0.09738985 -0.012507533 -0.09450238 -0.04900018 0.116165094 0.058673684 -0.022552732 0.004997307
0.14027877 0.21851656 0.054922845 -0.06799615 0.04979647 -0.1192912 0.30144814 -0.008417842
0.21760064 0.12270133 0.117813416 -0.0891859 0.068070576 -0.006971051 0.025094545 -0.1184949
0.03448425 0.20211546 0.17917214 0.01763696 0.09614419 0.17449811 0.06201107 0.14020626
-0.052916024 0.14223647 0.062315356 -0.0189477 0.007668818 0.001335279 0.2839593 0.014051421
0.07571463 0.049103487 -0.09460721 -0.013512403 0.051064122 0.05099054 -0.04068452 0.09559019
0.043742083 0.05575822 0.015494446 0.19398308 0.08546932 0.045788284 -0.0012660595 -0.026540639
0.061814237 0.083470084 -0.07340463 0.058401786 -0.014030384 0.033795517 0.052408494 -0.06435401
-0.13235654 -0.021197591 -0.09844869 0.08727654 -0.047623392 0.14482711 -0.011565531 -0.113285914

lstm.weight_ih_l1 f4 [256, 64]
00000000: 794f d1bd 5e75 f2bd a5a4 953d 58e5 7e3d
00000010: 630f ba3c 028e 933d 1793 16be 7f77 ddbc
00000020: 226e de3d b017 2b3c 5a6a 9bbd 168c 4c3d
00000030: ae6b 3f3d 0d69 96bd e939 1abe 51f7 853d
00000040: 5fd8 58be 510a 293e ebac cb3d 6250 82bd
00000050: 5c03 c43d ae80 d5bd 90f4 203e 28f6 fd3d
00000060: 62a8 20be c6d3 a53d 937d 3ebc 142a 24be
00000070: fe3e 603c d637 0f3e 6200 af3d 3e86 783d
00000080: 842c 2d3e fd95 21be 05e6 63bb 77af abbd
00000090: b74a 07be 33dd 4cbd a860 69bb 3aa3 a63c
000000a0: 3aaf d13c 7297 83bd 5020 153e 3f2d 453e
000000b0: 8b5e 9d3d 814f b63c 946b c4bd e185 103e
000000c0: ce21 a5bd 2ef8 d43d 74b1 903c 48ff 053e
000000d0: 8255 943d f8ea c7bd ccac 99bc f59e 173e
000000e0: d449 443d 4187 bebc 4c6f d6bd 2df5 cabc
000000f0: c38a fbbc 3179 d5bd 56cd e1bd 35be afbd
00000100: bcbc a4bd 80aa 5dbe 9ef6 973d 36d4 6e3d
00000110: d00c c1bd 9d0f 3abd 6a04 d23d 9fcf c63d
00000120: b5f4 84bd 1e1e 40bd 5964 9c3b c391 3ebd
00000130: a9d2 f63d 3429 d2bc b74a 55bc 810a e9bd
00000140: 0394 043e ed5b 803d 873d f13d 0975 bfbd
00000150: 859c 6b3c c98f 053d 077a 0cbd 6123 d53d
00000160: b251 c0bd cf53 93bd cb09 9b3d 3879 4cbd
00000170: 6b9a b03d c1db e8bd 1bb6 193e e196 b73d
00000180: 60ab ab3d 7b11 ecba c940 be3d fb65 c63d
00000190: 15a3 ff3d 4f5c 08be 3afe cebd 9b6b 553d
000001a0: f845 ccbd e56a 3dbd c56f 5fbd 0ff1 593c
000001b0: feac 9abc a43c 66ba 1218 403d 6860 a13d
000001c0: b284 b4bd 7d3c af3d a30b 713d 7f43 813d
000001d0: da06 8a3d 12f4 d13d d9f6 543d e14d 9cbd
000001e0: 4a66 f33d 75ee 83bd ea66 5e3c ba1d 60bc
000001f0: 12d2 f4bd eedc 06bd 3e4f debd 38e3 4a3d
00000200: 03e8 f6bd 47a9 9cbd eee1 0c3e ff29 fcbd
00000210: e779 6dbe 230a e53d da91 e1be 7648 8cbd
00000220: a639 773e 1664 2bbd a4f9 113e c288 06bd
00000230: 8790 b13d b5d4 84bd a0a1 e2bd 05e9 25be
00000240: 3258 8bbe 58f8 1cbc 0955 a73e 9558 a4be
00000250: cebd cc3c 4ca5 18bc 60a2 87bc 0761 853e
00000260: 37b7 fdbd 64a8 0b3d d3a9 35be c066 7abd
00000270: 7eeb 45be fff3 6a3e 5751 c43e 6219 9f3d
00000280: 4a68 293e afbf fd3b 14a7 23bc 7f4f 06be
00000290: c881 66be 8fcd 0d3e a18b ab3c 6fb0 96bb
000002a0: 0d82 7cbd ce32 abbd 379e 3e3d 641e 703d
000002b0: c56d 003e 6ec8 213e 27e8 5cbe 3179 be3d
000002c0: c262 e2bc 5f3a 043c 3b1e dabd 4336 363d
000002d0: e738 a83d 9614 36be df54 1b3e c206 db3b
000002e0: ad4f 1dbe 31d3 93be 5230 3abb e6a7 eebd
000002f0: 1a27 023d 5fec 363c d46d 2cbd da3d 2abd
00000300: 1e22 473d a946 f43d ecb5 0b3d 8e48 09be
00000310: 8307 403b a1c7 c23d d4d5 a0bd 97d7 9d3c
00000320: 97cf bc3c df1e 00be 1e28 f03d 0034 f1bd
00000330: 51d5 473d 9fda 93bd 188e 0abe 33c8 afbb
00000340: db77 01be 08d3 c73c 6c9e 023e 385c b3bd
00000350: 9da1 973c f43c 21be 6092 12bd cd50 a53d
00000360: 9877 393b 6b49 efbc edfd 1c3d 2c22 b6bd
00000370: b5fe cbbd f795 87bd 008b df3c b828 9a3d
00000380: b4f6 83bc 6b82 0ebc a0b4 a8bd 9314 ebbd
00000390: 2fb7 4f3d fe7a f2bd 0e32 823d 9861 a2bd
000003a0: b40a 083d 3717 a83d 2038 cc3d ef3c 0ebd
000003b0: f649 e23d d306 023e 31e4 95bd f82e f7bc
000003c0: 7d91 96bd 8acf bc3d f2b9 c6bd 184a d33d
000003d0: add3 c9bd 4be6 483c 5352 d53b 0d73 2abd
000003e0: 712e beba 6413 f5bc f460 d93d ccc5 c7bd
000003f0: 8b6d 183d 8347 c4bb 1b23 ba3d 9ab3 b2bd
-0.10220236 -0.11838792 0.07306794 0.062230438 0.022712415 0.0720482 -0.14704548 -0.02703452
0.1086085 0.010442659 -0.07588644 0.049938284 0.04673355 -0.073442556 -0.15061153 0.065413125
-0.21176289 0.16507842 0.09945091 -0.06362988 0.09570953 -0.10424934 0.15718293 0.12400466
-0.15689233 0.08097033 -0.011626619 -0.16031677 0.0136868935 0.13986143 0.08544995 0.0606749
0.16911513 -0.15779872 -0.0034774553 -0.08383077 -0.13212095 -0.05001564 -0.003561059 0.020341504
0.02559625 -0.0642537 0.14563107 0.19255541 0.07684048 0.022254707 -0.095908314 0.14113571
-0.08063088 0.10398899 0.017662741 0.13085663 0.07242872 -0.097616136 -0.018759154 0.14806731
0.04792197 -0.023257853 -0.10470447 -0.024775112 -0.030705815 -0.10423506 -0.11025493 -0.08581201
-0.08043811 -0.21647072 0.07420085 0.05830785 -0.09426272 -0.045425046 0.10254748 0.09707569
-0.06491987 -0.046903722 0.0047727046 -0.046525728 0.12051899 -0.025654413 -0.013018302 -0.113789566
0.12947087 0.062675335 0.117793135 -0.093484946 0.014380579 0.032607827 -0.03429606 0.104071386
-0.09390582 -0.071937196 0.07570227 -0.04992029 0.08623203 -0.1137004 0.15010874 0.08964325
0.083822966 -0.0018010581 0.092897005 0.0968742 0.12482277 -0.13316463 -0.101070836 0.052104574
-0.09974283 -0.04624452 -0.05454995 0.013302102 -0.018881317 -0.000878284 0.046897955 0.07879716
-0.08814372 0.08556459 0.05884899 0.06311702 0.06739588 0.10251631 0.051993225 -0.07632042
0.118847445 -0.064419664 0.013574341 -0.013678962 -0.1195413 -0.03292554 -0.10854958 0.0495331
-0.120559715 -0.076494746 0.1375806 -0.123126976 -0.23191033 0.11183574 -0.44056588 -0.06849758
0.24143085 -0.041843496 0.14255387 -0.032845266 0.086701445 -0.06485883 -0.11065984 -0.16202171
-0.27215725 -0.009580694 0.32682064 -0.32098833 0.02499285 -0.009316754 -0.016556919 0.26050588
-0.12388461 0.034096137 -0.17740564 -0.061133146 -0.19328114 0.2294464 0.38343307 0.07768513
0.1654369 0.0077437977 -0.009988565 -0.13116263 -0.22510445 0.13847946 0.020940604 -0.0045986692
-0.061647464 -0.083592996 0.046537604 0.058622733 0.12541874 0.15799114 -0.21572934 0.09300459
-0.027634982 0.008070557 -0.10650297 0.04448534 0.08213978 -0.1778129 0.15169095 0.006684155
-0.15362425 -0.28872064 -0.0028410149 -0.11653118 0.03177557 0.011164754 -0.042096928 -0.041562892
0.04861652 0.1192754 0.03410904 -0.13406584 0.0029301352 0.095107324 -0.078532845 0.01926784
0.023048205 -0.12511776 0.11726402 -0.11777496 0.04878742 -0.07219433 -0.13530767 -0.005364442
-0.12643377 0.02439262 0.12755746 -0.08757824 0.01850968 -0.15745908 -0.035784125 0.08072052
0.0028300043 -0.029209813 0.0383281 -0.088932365 -0.09960691 -0.066204004 0.02728796 0.07527298
-0.016108848 -0.008698086 -0.082375765 -0.114785336 0.050711807 -0.11839865 0.063572034 -0.07928771
0.033213332 0.08207553 0.099716425 -0.03472608 0.11049263 0.12697916 -0.07318915 -0.030173764
-0.073519684 0.092192724 -0.09703435 0.10316867 -0.09854827 0.012261937 0.006510058 -0.041613627
-0.001450969 -0.029916473 0.106141955 -0.09754524 0.037213843 -0.00598997 0.09088727 -0.087256625

lstm.weight_hh_l1 f4 [256, 64]
00000000: 39c4 b43c 6518 86bd 28eb 45bd cdb6 bbbd
00000010: adc5 0a3d d3a5 7abd 76f0 d0bd 336c ae3d
00000020: abd9 a0bc d4a5 d43d 8069 9ebd 9c11 24ba
00000030: 01c0 d9bd 9c1b 6abd 4cc2 f33d 1307 01be
00000040: 9627 a5bd ba22 da3d f4dc 88bd 0994 063d
00000050: 5696 09be 1944 42bd 5909 3fbd 0ec0 073d
00000060: f73c 513d ea1c ce3d 1365 543e 7945 7dbd
00000070: a54c 26bd 860e babd af49 57bd 0f4b d9bd
00000080: 0f84 ec3d c125 553d 9492 1d3d 9222 653b
00000090: 3d70 95bd 0957 d5bd 49a8 48ba 00b0 8f3c
000000a0: 0b42 223e b9db 683d af32 1f3e 3c26 61bd
000000b0: dc89 e4bd 42d1 e4bb 9fcb c6bd 5b72 2abd
000000c0: b08e f43d 91b8 c1bc b3b5 12be c985 a03d
000000d0: d655 90bd dcde 80bd f996 d8bd 109f ac3d
000000e0: 353d 2f3d 05f9 f3bc 43d6 a6bc 826e 8fbc
000000f0: dddb 103e acc0 303d ec3e d03d 0959 3abd
00000100: 3e7a a9bd 9900 81bd bb40 983d a6b9 4c3d
00000110: fcc0 43bd d0f5 6a3c f12d 32bc 851f b53d
00000120: 4326 d53c 1abd 8cbc 7f4f 07bc 5f3c 9a3d
00000130: b3ba d13c acaf adbc 10aa 4bbd 2c98 9e3d
00000140: c72b 953d 372e d23c c373 fabd b08d f0bd
00000150: 9984 b3bd b94e 2a3d d8d4 fd3d 01ae c3bd
00000160: 383f afbd 7d2d 00be 9d28 cabb bfff a13d
00000170: 3170 f53d 3987 c03c f289 9539 ad30 1dbe
00000180: f9c3 1d3d edd2 953d 2dd0 c5bd f585 27bd
00000190: 65b1 883d 75b3 8ebd 3b37 163d c042 1bbd
000001a0: 7ad4 39bd ac9f 233d 0635 073d 6ed3 d5bd
000001b0: 7922 d63d 239a febc fb0c a7bd cf87 023d
000001c0: d7ee 27bd 0d1f fdbb 297a 5ebd bbef b3bd
000001d0: 01d8 e53d 8378 2ebd 169f 59bc 1bcf 3b3d
000001e0: 2f20 a1bd d9b9 a1bd d1d7 62bd 5a7f 62bd
000001f0: e85a 99bd e3ce ff3d 9241 c93d b8a6 56bd
00000200: c55c d93d ea6d 29be c428 67bc e871 233e
00000210: 8c2c 953d 1d6e d2bd 9d65 8ebd ddcf 603e
00000220: 54f0 bd3d c52f 0b3e 1769 92bd 51bf 953d
00000230: b7a0 74bc 723d cabd a533 74bd 9a4d 913d
00000240: 9536 593c 41c9 583d c00d 3bbb 182b 803c
00000250: 5918 36be 3ff5 8cbc 7bb6 223d be07 21be
00000260: 5297 333c d29f d0bd d671 eb3d 10ca 8bbd
00000270: bfc1 60bd b6fa 8fbb fc2a b8bd b401 343d
00000280: 2ffc 1f3d 5361 88bd c668 d73d 536e d4bb
00000290: be3f 95bc 6583 e93c 8a1a a9bd 7de0 0c3d
000002a0: 5c60 9a3d e2ac e8bd bad9 ac3d 1eed 343e
000002b0: c2a9 973d a4bf 17be f1d2 f1bd e875 c4bd
000002c0: 0f5f a73d 83f5 b7bd 4f1e 33bd 66b8 de3d
000002d0: 9e18 bf3d 8aa7 b63c e8d4 853d 13ea d1bd
000002e0: a93c 833d a2e0 e13c 1322 673d 1726 0d3d
000002f0: 2409 fa3d 3858 d63d 16f5 0f3d aca8 583c
00000300: bcfe 48bb bcc2 1c3d 74a1 843d cccb d23d
00000310: c572 c93b a34d 073c b19d 0b3e a841 983d
00000320: 0e65 d4bb 53bb e2bd 3821 5bbd 3117 77bc
00000330: 30c1 043e 4306 843d 6b26 803d ef32 1e3e
00000340: a54d df3c 37b9 16bd 717b 3dbc bc3e 4bbd
00000350: 6ccd 19be 6ef3 a83c 52b3 5bbd c580 b2bd
00000360: 5c60 9e3d c18b a53d e8a4 f03d 5308 743d
00000370: 0a48 71bd c461 eabd 65ed 003b 3267 bf3d
00000380: e324 9abd 73a3 f7bc 69c0 f0bd 8ea6 2bbd
00000390: d25e 943d ca1f 3fbd ebf2 0cbe 1e92 a63d
000003a0: 8502 df3d 641c d7bd d736 9eba 142e 6b3d
000003b0: c234 d73d 7eeb 7ebd a7e5 fb3d 256b 0cbe
000003c0: 9b06 cdbc 3efb 52bd 6492 8c3d c5e5 b13d
000003d0: 2265 aa3d cc4d c4bc 3065 213d 0ce8 b23d
000003e0: 6edd a4bc 23f7 143e c9df 533d 4a74 13bd
000003f0: 1baa 0f3c 62dd b63d 894d 843d 1e33 cebb
0.022066223 -0.06547622 -0.048319966 -0.09165726 0.033879925 -0.0611933 -0.10202114 0.08516731
-0.019635042 0.10383192 -0.07734966 -0.00062587275 -0.10632325 -0.057155237 0.119022936 -0.12600355
-0.08064191 0.10651155 -0.066827685 0.03285602 -0.13436255 -0.047428224 -0.046639774 0.033142142
0.05108353 0.10064109 0.20741682 -0.061833832 -0.040600438 -0.090848014 -0.052560505 -0.106100194
0.11548626 0.052037958 0.038469866 0.0034963232 -0.072967984 -0.10416991 -0.0007654471 0.017539978
0.15845506 0.05685017 0.15546678 -0.054968104 -0.11159107 -0.0069829533 -0.097068064 -0.041612964
0.11941278 -0.023647578 -0.14327125 0.078380175 -0.07047622 -0.06292507 -0.10575671 0.08428776
0.04278298 -0.029781828 -0.02036584 -0.017508749 0.14146371 0.043152496 0.101682514 -0.045495067
-0.08275269 -0.06298942 0.07434221 0.049981736 -0.047791466 0.014340833 -0.010875211 0.088439025
0.026019221 -0.017180014 -0.008258699 0.07531046 0.02560172 -0.021201931 -0.04972273 0.07743868
0.072837405 0.025656803 -0.12229111 -0.11745775 -0.08765525 0.041578982 0.12394112 -0.09554673
-0.0855698 -0.12517352 -0.0061693923 0.07910108 0.119842894 0.02350198 0.00028522272 -0.153506
0.038516972 0.073156215 -0.09658847 -0.040899236 0.0667446 -0.069678225 0.036673766 -0.037905455
-0.04536865 0.039947197 0.03300955 -0.10440718 0.10455794 -0.031079357 -0.08156773 0.0318678
-0.04099926 -0.007724649 -0.05431572 -0.08785959 0.1122284 -0.042595398 -0.013282558 0.045851808
-0.07867467 -0.07896776 -0.0553816 -0.055297233 -0.07488042 0.124906324 0.0982696 -0.05240509
0.106133975 -0.16545835 -0.01410884 0.1596142 0.07283887 -0.10274909 -0.06952975 0.21954294
0.092743546 0.13592441 -0.071489505 0.07311881 -0.0149308955 -0.09875001 -0.059619565 0.070948794
0.013257642 0.052926306 -0.0028542131 0.015645549 -0.17782725 -0.017206786 0.03972481 -0.1572561
0.010961371 -0.10186733 0.11496322 -0.0682565 -0.05487227 -0.0043939007 -0.089925736 0.043946937
0.03905886 -0.06659188 0.10518031 -0.0064828782 -0.018218871 0.028505037 -0.08257015 0.034393776
0.0753791 -0.113611 0.084399655 0.17668578 0.074054256 -0.14819199 -0.11807812 -0.09592801
0.08172428 -0.089823745 -0.043730076 0.10875015 0.09330867 0.022296686 0.06534749 -0.10249724
0.064080544 0.027572934 0.05642898 0.034460153 0.12208775 0.10466045 0.03514584 0.013223808
-0.0030669412 0.03827165 0.06476107 0.102927774 0.006147715 0.008258256 0.13634373 0.07434398
-0.006481773 -0.110708855 -0.053498477 -0.015081213 0.1296432 0.06446507 0.06257328 0.15449117
0.027258703 -0.03679773 -0.011565075 -0.049620375 -0.15019768 0.020623889 -0.05363781 -0.08715967
0.07733223 0.080832966 0.11750203 0.05957825 -0.058906592 -0.114444286 0.0019672748 0.09345855
-0.07526567 -0.030229306 -0.11755449 -0.041906886 0.07244648 -0.046661176 -0.13764541 0.081333384
0.108891524 -0.10503462 -0.0012070787 0.05741699 0.1050811 -0.0622363 0.12299662 -0.13712747
-0.025027564 -0.051509134 0.06863859 0.08686403 0.08320071 -0.023962878 0.03940314 0.08735666
-0.020125117 0.145474 0.05172709 -0.035999574 0.008768584 0.08928944 0.06460101 -0.0062927147

lstm.bias_ih_l1 f4 [256]
00000000: 3943 0e3d c918 b6bc 54af 42bd 221a c33d
00000010: 6ff3 da3d 6a18 10be 7002 f33c a0e1 263d
00000020: 7dad 933d b604 c43d 72b5 913d c9ce 86bb
00000030: 3cc1 953d dbcd be3d f3e1 333d a82d 663d
00000040: 1344 4e3e 13a9 b73d aca6 9e3d c65d 683d
00000050: 4193 053e 5cea c3bd e437 8a3e 1d4d 9abd
00000060: 17f6 0b3d e767 27bd 1c9a 903e 842a 5dbc
00000070: fd78 693e 7828 5b3e 8ba6 c1bd 6cfa c5bc
00000080: 4be7 183e db3f 323c 633a 183e 066d 2ebd
00000090: 5993 9b3d 0dbc 29bd 76b8 573d 3f84 953d
000000a0: 84e8 70bd 91f4 9f3c 91f0 9fbd bac6 213e
000000b0: 4798 4c3c cad7 35bc a40d 97bd 4f09 193e
000000c0: 6783 e0bc c75b 173e 7876 ed3c 454f c4bd
000000d0: 4d41 15bc c7db 62bd 3100 36bd b540 e73d
000000e0: 4083 6c3d 2606 513e b394 a0bd f812 043e
000000f0: 4f15 c73d 8c81 5dbd cfc3 0ebd d05a dd3d
00000100: 11a3 b63d d9e0 c5bd 8b17 803c f327 8bbd
00000110: 60f8 823c 41c6 a1bd fe59 0cbe 2c84 12be
00000120: 5ec1 0c3d 21ca 46bd d0f9 c93d d664 fbbd
00000130: 4b2f debd 13bf 40bd aebd c73c fb24 dfbd
00000140: b84f 85bd c768 a43d 755b 9dbd 3fe5 f2bd
00000150: 4259 bebd e730 aa3d 2825 1fbd 3717 8e3d
00000160: c7c4 01be f476 823d 4383 8d3d 4fef 4cbd
00000170: 0503 1cbc 16df 0dbe 828d 93bd eaac 34bd
00000180: 44f6 02be d7ed 9a3d 6bed 73bd b494 a6bd
00000190: c228 8dbd 9ab8 16bd f1d8 fabd 5e6c d73d
000001a0: 37d8 5d3c 4cc1 3c3d 172d e3bc f0b7 44bd
000001b0: 64f5 14be 57a8 a03d a21c 56bd 17a5 6abc
000001c0: f0cc abbd 67be e5bd 4867 1bbe 4f52 febd
000001d0: 6869 a33d 03a5 babd 82e6 07bd b819 343d
000001e0: d191 e73c f584 18be 69b9 00bd aec3 d6bd
000001f0: 66dc a3bc 9119 30be fc40 5bbd bb29 abbd
00000200: e010 593d 790d 8b3c 283c ebbc a65c 953d
00000210: 2173 1c3d 42a1 86bd 5b28 0bbd ffab 603d
00000220: 2ef7 8c3d a59d 713d cb1e 433c b674 c73d
00000230: 5835 87bd 2560 ca3c bbc5 9f3d 388e d1bb
00000240: 3a33 aebd b78e e1bc 0c3d 0bbe 3bbe ecbc
00000250: 9414 1abd 3d5f d8bc 9ee7 d5bd 2133 66bd
00000260: 45fb 65bc fcd2 abbd 47cd 84bd 73b7 3ebd
00000270: b5b6 a7bd bc76 61bd c957 46bc c885 91bd
00000280: a0d4 7b3c 34d9 413d 9646 27bc 522b d9bd
00000290: 83f4 453d 8626 fa3d 5008 483d 8867 c43d
000002a0: 572c 9f3d 4dba fdbd b2c5 b83c 3f24 263d
000002b0: 6df1 c8ba f813 5ebd 5ad6 66bc 3a83 f8bc
000002c0: e6e4 8abd 11e1 89bb f82f 3fbd 80bc 363c
000002d0: 5f4e a5bd f9e7 06bd a494 95bc be9c 2fbd
000002e0: cbdc ba3d 02f6 d33d eb53 923d 7f11 763d
000002f0: 2245 003e fab7 3ebd 95dd aebd 14d5 9f3d
00000300: a0d8 133e 6e1b 33bc 4706 873c cb1f 13bc
00000310: 135a 9cbc b59d a1ba 5960 ca3d d8f9 ea3d
00000320: d61b eabb f950 c33d 81c3 f43d 5cdb e93c
00000330: a350 083e 5d6f 9fbd f0ff 723d 02b8 c4bc
00000340: 21de 193e f1d4 84bd 1f6e dc3c 0898 583d
00000350: f16d d43d c027 313d 8546 0e3e 5f8e db3c
00000360: 2f4f 3a3e e8e9 ab3d c00b ac3e 3b7e c1bc
00000370: 272d 4d3e 2c18 4c3e 7a87 df3d e11e fb3c
00000380: a1f0 3d3e 0c93 b63d 81fc 993d 4260 cabc
00000390: 2605 0d3d b571 c8bd f9f7 9abd 61de ae3d
000003a0: a567 9cbb 6fd2 943c 9cbe a13d 992d 813d
000003b0: 3111 00be 2d55 d93c 106b 023e 50db 83bd
000003c0: 7434 f43d 5f1d 313e cfed c03c 4c7d 08be
000003d0: e470 11be 092e c4bd 0849 8abc 7d5d b0bc
000003e0: 861c b43c 5f98 9c3e a580 2cbd 6934 bbbd
000003f0: d07e 413d 0280 debd 3cad 243c 4342 823e
0.034732077 -0.022228615 -0.047530487 0.09526469 0.106909625 -0.14071813 0.029664248 0.040742517
0.07210825 0.09571211 0.07114686 -0.004114006 0.07312247 0.093166076 0.043916654 0.056195885
0.20143156 0.08967795 0.07746634 0.056730054 0.13044454 -0.09566185 0.26995766 -0.075342394
0.034170236 -0.040870573 0.28242576 -0.013498906 0.2280006 0.21402156 -0.09455594 -0.024167262
0.14931981 0.010879482 0.14866023 -0.04258444 0.07596464 -0.041439105 0.05266615 0.073006146
-0.058815494 0.019525798 -0.07809556 0.15798464 0.012487478 -0.011098811 -0.073756486 0.14944957
-0.027406408 0.14781104 0.028987154 -0.09585432 -0.009109807 -0.055385377 -0.044433776 0.11291639
0.057742357 0.20412502 -0.07840862 0.12897861 0.09720861 -0.054078624 -0.034854706 0.10808337
0.08917821 -0.09662027 0.015636226 -0.06794729 0.015987575 -0.07899142 -0.13706204 -0.14308232
0.034364097 -0.04853261 0.09862101 -0.12275092 -0.10848864 -0.047057223 0.024382439 -0.10895725
-0.06509346 0.08027797 -0.0768346 -0.118601315 -0.09294368 0.08310109 -0.038853794 0.06938022
-0.12672721 0.06370345 0.06909802 -0.05003291 -0.009522204 -0.13854632 -0.07204725 -0.044110216
-0.12789255 0.075648956 -0.05955259 -0.081338316 -0.068925396 -0.036797144 -0.122484095 0.10518716
0.013540319 0.04608278 -0.027731461 -0.04802698 -0.14546734 0.07844608 -0.0522734 -0.014321587
-0.08388698 -0.11217957 -0.15176117 -0.12418043 0.07979089 -0.09113505 -0.033178814 0.04396984
0.028267773 -0.14894469 -0.03142682 -0.10486542 -0.020002555 -0.17197253 -0.05352877 -0.08357569
0.05299461 0.016974198 -0.028715208 0.07293062 0.038195733 -0.06573726 -0.033974033 0.05485153
0.06883083 0.058988232 0.011909197 0.09739058 -0.066019714 0.024704048 0.07801386 -0.0063951276
-0.085058644 -0.027533872 -0.13597506 -0.028899303 -0.03761728 -0.0264126 -0.10444568 -0.056201104
-0.014036958 -0.083898515 -0.06484466 -0.04656167 -0.081891455 -0.055044875 -0.012105891 -0.07105595
0.015370518 0.04732628 -0.0102097 -0.10603966 0.048328888 0.12214379 0.048836052 0.095900595
0.07772129 -0.1238905 0.022555206 0.04056191 -0.001533074 -0.054218262 -0.014089191 -0.030336011
-0.0678194 -0.004207738 -0.046676606 0.01115334 -0.08071589 -0.03293607 -0.018259354 -0.04287409
0.09124144 0.10349657 0.07144912 0.06007528 0.12526372 -0.046562172 -0.08538357 0.07804313
0.14438105 -0.010931833 0.016482485 -0.008979748 -0.01908592 -0.0012330326 0.09881658 0.11473435
-0.0071444316 0.09536929 0.11951352 0.028546982 0.1331201 -0.07784913 0.059326112 -0.024013523
0.15026142 -0.06485928 0.026907979 0.052879363 0.10372532 0.0432508 0.13894089 0.026801286
0.18194269 0.083942235 0.33602715 -0.023619762 0.20036756 0.19931096 0.10914512 0.030654373
0.18548824 0.08914766 0.075188644 -0.024704102 0.034428738 -0.09787313 -0.07566828 0.08538509
-0.0047730976 0.018166749 0.07897684 0.06307525 -0.12506558 0.026529873 0.12736154 -0.06438315
0.11924067 0.1729636 0.023550896 -0.13329047 -0.1420322 -0.09579093 -0.016880527 -0.021528954
0.021986257 0.30585 -0.042114872 -0.09140856 0.04724008 -0.10864259 0.010051068 0.2544118

lstm.bias_hh_l1 f4 [256]
00000000: 6790 0abd 18a1 573d 7d08 e43d 59a4 3f3d
00000010: 0554 373e 69cc 6e3c 422e 3a3d 078d 8cbd
00000020: 212d 063e f771 12bd 34c4 a33d 3390 873d
00000030: 6e89 7bbd 9962 5fbd 42b5 513c 0448 2b3d
00000040: e63a 943e 4f30 813d 9c24 0c3e 4e63 793d
00000050: a6f2 f93d 36de 2b3d df76 2d3e c7b7 953d
00000060: 6bc1 f73c 1b29 3bbd bfcd c73e 7157 7e3c
00000070: 4d9b 813e ce18 753e 7dbe 08bc 1ab9 e9bb
00000080: 9673 9a3e 090d 8c3d 62f5 6ebd fc40 60bd
00000090: 7f8b 9c3d 9c05 c4bd 00de 7b3c f7ba 913d
000000a0: 45e5 adbc ad29 58bc 73da 333c f0e5 643e
000000b0: a56f 39bd 8e87 20bd ab32 72bd 07db 0e3e
000000c0: 6133 97bc 3958 233e 7212 eb3a 5a2f 323d
000000d0: 82da afbb 1e96 c0bc 4114 743d e65c 7c3d
000000e0: eedd ccbd bded 4f3e 71c7 783c 51fb c0bd
000000f0: a12d 2c3d 48b0 78bd 8551 123d dc5d f53d
00000100: 76c6 f2bc 25af af3d bf85 e1bd eaa7 44bc
00000110: 504f 333d c572 b63d 9832 07bd abab a33c
00000120: 3a25 16bd 87df 87bd 60b2 dd3c 39e5 1abe
00000130: cdab cabd b60d 03be f8b2 f63d 0c74 8c3b
00000140: 0c61 c3bc 097c 9dbd 8dd9 cc3d ac8c 1fbe
00000150: aef0 04be bf2a 04be f8e7 0e3d 2d7d 9b3d
00000160: 7c8a 58bd f264 3b3d d5dd 0fbe 096f d9bc
00000170: 5e53 debd 7288 72bd bedd 86bd d910 88bc
00000180: d93e 7d3d 249c 7b3d c980 3a3d 161f ed3d
00000190: ce28 623b 2a64 3c3d 693c 683c 241a c8bd
000001a0: f52c 5f3d f57d 39bd 0d67 22bc 6e36 dcbd
000001b0: 6d1f 1cbd c362 6abd 82f2 2b3c 9496 f13b
000001c0: e4e2 14bd 21f3 1abe b6f9 c7bc 65c1 d6bc
000001d0: d6ac dfbd dba6 dbbd c01c 5ebd 8f2d be3d
000001e0: 5335 363d 739a 123d 5403 00be 5fea 643d
000001f0: 2e6a 6f3d d4eb fabd aa27 a63d 527b 693d
00000200: f868 503c e45e 343d 2547 053d a4bf f63d
00000210: 5333 a9bd 0ea0 55bd fd88 6cbd b83d ab3d
00000220: f429 973d cc37 a73d 7a62 fc3d 28cf ae3d
00000230: 3b8b 29bc b959 53bd 85ba d83d 999f 7ebc
00000240: cdde 20bc aca4 d3bd 15b2 b03d 8b0b 40bd
00000250: 4615 d7bd e5cb c1bd c20c 9e3d 420d fabd
00000260: 7e0c e03c 12ad c13c ac92 093d 9985 153d
00000270: b827 10bc 52ea 5ebd 93d0 003d 1d6a 053d
00000280: ed25 8ebd 4479 c43d 7740 6e3d 627c ccbc
00000290: 171e 72bc 6cea 8ebd f3d8 923d 70dc a3bd
000002a0: 0d3e 42bd 1030 4a3d 5e8a de3c 1d2b 54bd
000002b0: 01a6 803d d14b 9d3d 0ad7 433c d671 a33d
000002c0: ade2 7a3d d505 0fbd 3cdc c5bd 705d ca3c
000002d0: 17bf e83d bf97 8a3d 03ff e03d 58c3 a9bd
000002e0: 21d3 c63d f402 cabc 391c 75bd e376 51bd
000002f0: 54d0 a43d 0ee7 ea3d 4d0b edbd 4c10 8bbd
00000300: 4046 84bc a22d 403d 581c 34bd c197 db3d
00000310: 730f eb3d 1c0f d0bd 154b e2bd f3f4 593c
00000320: c202 fb3d 5dd4 4dbd a3f2 a3bd f0c4 dd3c
00000330: 168f 613d 392d 073d 4655 983c 1a72 bd3d
00000340: c0cb f13d 4743 c2bd df44 54bd 45bf df3d
00000350: ace5 0abd 26a2 09be 4738 223e b962 fc3d
00000360: b9e6 d4bb 8200 e13c e5dd 7a3e 1869 ac3d
00000370: 4e06 ab3d 635e 313e 852f 643d 135b 213e
00000380: a767 6a3e 78ac 80bd afdb 9c3d 80f8 e93b
00000390: 90c4 2c3e 1771 893d 9798 dcbd b965 cfbd
000003a0: 43e5 c23d 78dd 2f3c c356 3a3c fcfe 193e
000003b0: 18f9 e03d da24 bbbb 1aba 83bd 50ac 233d
000003c0: 4491 db3d b542 c83c 431c 263e fcbb acbd
000003d0: ce2e af3d 11d6 c4bc 920f 84bc f000 b3b9
000003e0: 7052 6dbd 0fdc 693e eb0c 2bbd a560 b83c
000003f0: be87 ccbc 74c6 db3d 051d 6cbd 347d 113e
-0.03382912 0.052643865 0.111344315 0.046787594 0.17903145 0.014575102 0.04545427 -0.06862836
0.13103153 -0.035753217 0.07996407 0.06619301 -0.06141036 -0.05453739 0.012799563 0.041816726
0.28951186 0.06308042 0.1368584 0.06088572 0.12204485 0.041959964 0.16939877 0.07310443
0.030243596 -0.045693498 0.3902416 0.015523777 0.25313798 0.23935243 -0.008346197 -0.0071326615
0.3016631 0.06838424 -0.058339484 -0.054749474 0.07643794 -0.095713824 0.015372753 0.07115739
-0.021227488 -0.01319353 0.010977375 0.22353339 -0.04527249 -0.039191775 -0.059130352 0.1395074
-0.018457117 0.15951623 0.0017934574 0.04350219 -0.0053666243 -0.023509081 0.059589628 0.061612032
-0.10003267 0.20305534 0.015184269 -0.09422935 0.042035703 -0.06071499 0.035722274 0.11980793
-0.02963565 0.08578328 -0.11011838 -0.012002924 0.04377681 0.08908609 -0.033007234 0.019979319
-0.036656596 -0.06634431 0.027062595 -0.15126504 -0.0989605 -0.12798199 0.12045854 0.004286295
-0.023849986 -0.076896735 0.10002432 -0.15581006 -0.12982437 -0.12906931 0.03488919 0.07592235
-0.052866444 0.045750566 -0.14049466 -0.026542204 -0.10855745 -0.059212156 -0.06585263 -0.016609596
0.061827514 0.061428204 0.045532975 0.11578195 0.0034509185 0.04599396 0.014174559 -0.09770611
0.054486234 -0.045286138 -0.0099122645 -0.10752569 -0.038115907 -0.057223093 0.01049483 0.0073726866
-0.036349192 -0.15131809 -0.024411064 -0.026215265 -0.10921638 -0.107251845 -0.054226637 0.09286033
0.044484448 0.035791826 -0.1250127 0.055887576 0.05845087 -0.12252012 0.08113034 0.057002373
0.012720339 0.044035807 0.03253855 0.12048271 -0.082617424 -0.052154593 -0.05774783 0.08361381
0.07381049 0.08164939 0.123234704 0.08535606 -0.010348137 -0.051599238 0.10582451 -0.015540981
-0.009818745 -0.10334143 0.086277165 -0.04688601 -0.105021045 -0.09462718 0.07717277 -0.1220956
0.027349707 0.023642097 0.033587143 0.03650436 -0.008798532 -0.054422684 0.031448912 0.0325719
-0.069408275 0.09593442 0.058166947 -0.024961654 -0.014777682 -0.06978306 0.07170286 -0.080010295
-0.047422457 0.049362242 0.027165588 -0.05179893 0.06281663 0.076804765 0.011953125 0.07980697
0.06125133 -0.03491767 -0.09661147 0.024702758 0.113645725 0.067672245 0.109861396 -0.08289212
0.097082384 -0.024659611 -0.05984137 -0.05113877 0.08047548 0.114698514 -0.11574421 -0.06790218
-0.016146779 0.04691852 -0.043972343 0.10722304 0.11477556 -0.10159132 -0.11049477 0.013303029
0.122563854 -0.050251354 -0.08005264 0.027071446 0.055068098 0.033002112 0.018595349 0.09250279
0.1180644 -0.094854884 -0.051823493 0.10925154 -0.03391044 -0.13440761 0.1584178 0.12323517
-0.006497231 0.027466062 0.24498709 0.084184825 0.08350812 0.17321162 0.05570938 0.15757398
0.22891103 -0.06282896 0.07659089 0.007140219 0.16871858 0.06711023 -0.10771292 -0.10126824
0.095163845 0.010733955 0.011373225 0.15038675 0.10985011 -0.00571118 -0.064319804 0.039959252
0.107210666 0.02444587 0.16221718 -0.08434293 0.08553849 -0.024027856 -0.016120706 -0.0003414224
-0.057939947 0.22837852 -0.041760366 0.022507021 -0.02496707 0.10731211 -0.057644863 0.14207917
